…
k to scroll output; double click to hide"></div><div class=3D"output"><div =
class=3D"output_area"><div class=3D"run_this_cell"></div><div class=3D"prom=
pt"></div><div class=3D"output_subarea output_text output_stream output_std=
out" dir=3D"auto"><pre>Model: "sequential_1"
_________________________________________________________________
 Layer (type)                Output Shape              Param #  =20
=3D=3D=3D=3D=3D=3D=3D=3D=3D=3D=3D=3D=3D=3D=3D=3D=3D=3D=3D=3D=3D=3D=3D=3D=3D=
=3D=3D=3D=3D=3D=3D=3D=3D=3D=3D=3D=3D=3D=3D=3D=3D=3D=3D=3D=3D=3D=3D=3D=3D=3D=
=3D=3D=3D=3D=3D=3D=3D=3D=3D=3D=3D=3D=3D=3D=3D
 rescaling_3 (Rescaling)     (None, 180, 180, 3)       0        =20
                                                                =20
 conv2d_3 (Conv2D)           (None, 180, 180, 16)      448      =20
                                                                =20
 max_pooling2d_3 (MaxPooling  (None, 90, 90, 16)       0        =20
 2D)                                                            =20
                                                                =20
 conv2d_4 (Conv2D)           (None, 90, 90, 32)        4640     =20
                                                                =20
 max_pooling2d_4 (MaxPooling  (None, 45, 45, 32)       0        =20
 2D)                                                            =20
                                                                =20
 conv2d_5 (Conv2D)           (None, 45, 45, 64)        18496    =20
                                                                =20
 max_pooling2d_5 (MaxPooling  (None, 22, 22, 64)       0        =20
 2D)                                                            =20
                                                                =20
 flatten_1 (Flatten)         (None, 30976)             0        =20
                                                                =20
 dense_2 (Dense)             (None, 128)               3965056  =20
                                                                =20
 dense_3 (Dense)             (None, 2)                 258      =20
                                                                =20
=3D=3D=3D=3D=3D=3D=3D=3D=3D=3D=3D=3D=3D=3D=3D=3D=3D=3D=3D=3D=3D=3D=3D=3D=3D=
=3D=3D=3D=3D=3D=3D=3D=3D=3D=3D=3D=3D=3D=3D=3D=3D=3D=3D=3D=3D=3D=3D=3D=3D=3D=
=3D=3D=3D=3D=3D=3D=3D=3D=3D=3D=3D=3D=3D=3D=3D
Total params: 3,988,898
Trainable params: 3,988,898
Non-trainable params: 0
_________________________________________________________________
…
